data.pth (torch, 5335 bytes, 6 tensors)

l1.weight f4 [8, 60]
-0.30730996 0.89038396 0.39112377 -0.36394706 -0.07300278 1.09702 0.19261242 0.5073168
0.44393337 0.4188587 -0.28076464 -0.08908325 0.7846805 0.20051265 -0.14058256 0.5554977
-0.1178598 -0.2683282 1.0821497 0.31808433 -0.5604095 -0.18858196 -0.6272431 -0.6279403
-0.8652732 -0.20816155 -0.1718915 0.5615598 0.746556 0.614523 0.6084961 0.6524645
0.26010358 -0.24039616 0.31023163 0.9053814 -0.13276406 0.15688795 0.6142634 0.62198424
-0.27691874 0.25106326 0.24878885 0.7010563 0.13625753 0.23307364 0.7560564 0.39371032
0.80179924 -1.0694025 -0.18894611 -0.043993674 -0.26195872 0.4769973 -0.21151386 0.2382102
-0.40411738 0.36428457 0.48210308 0.16266096 0.8270547 -0.03606641 -0.0623507 -0.35629383
0.13332012 -0.6394008 -0.034063816 -0.32954448 0.3967096 -0.3176571 -0.29519314 0.38552156
0.65005505 0.4084337 0.01912439 -0.008804819 0.26709852 -0.28529254 -0.639562 0.39950615
-0.60100293 0.7334842 -0.6395075 -0.6333452 -0.011744851 0.35056064 -0.1544924 0.68913805
-0.39641368 0.3783927 -0.4264131 -0.48672098 0.59699214 0.51801085 -0.088999525 0.054058976
0.44888574 0.008258648 0.41621783 0.4570217 -0.11157093 -0.06429312 0.036404535 -0.5544501
0.5627283 0.44010147 -0.048795477 0.4837194 -0.021216946 1.1475829 0.5740592 0.38979846
0.0028235738 0.68988585 0.30904353 0.52471226 0.2519849 -0.083994314 0.48045242 0.068588145
0.25531754 -0.12504327 0.016294096 0.3714 -0.10910117 -0.19513299 -0.2151242 -0.23494281
-0.18485019 -0.1921515 0.48318174 0.771262 -0.0016146945 0.8918256 0.06497641 -0.18450914
0.8146016 0.35122716 -0.15490022 -0.15242437 0.6994857 0.057872843 0.5276844 0.6826125
1.0709476 0.42585588 0.12893867 -0.36952558 -0.28962845 -0.01099898 -0.34903368 0.042600583
0.8730174 0.08737924 0.050410833 -0.06510233 0.5859322 -0.3364228 -0.051486537 -0.11183159
-0.11475867 -0.22506958 -0.19628611 0.031029351 -0.34109148 0.541151 -0.2297204 0.5624904
-0.2455471 0.23376818 0.2569186 0.23870607 -0.12512547 -0.42248192 0.7590205 -0.24174234
-0.6359133 -0.2831201 0.040328212 -0.0951696 -0.2728268 -0.14273663 -0.11603655 0.15759233
0.6808693 0.5806199 -0.20981726 0.28565314 -0.3568068 0.31870446 0.37669194 -0.052790057
-0.11448359 -0.07565592 0.8272292 -0.2632979 0.23592001 0.3768764 0.71188533 0.2057282
0.5090665 -0.28196472 0.5219338 0.54825646 0.45573232 0.08227264 0.8485882 -0.17780049
-0.17843825 -0.18883584 -0.2906779 0.5550784 -0.07923663 -0.056506623 -0.018601673 -0.2744962
0.12118766 0.81572837 -0.13630626 -0.44027013 0.7343644 -0.15297051 -0.23205516 0.42591855
-0.37701705 -0.009453112 -0.12028842 0.054527692 -0.19322848 -0.93745685 -0.39291942 -0.099041454
0.8634949 0.42330897 0.23246889 0.26081842 0.9638583 -0.22136185 0.36485863 0.87992924
0.6687929 0.20429948 0.616667 0.3301292 0.0068723974 -0.32162967 0.44509184 0.5455253
0.78296685 0.70107776 0.19300917 0.4949438 0.5009024 0.38073188 -0.19769916 -0.17068622
00000000: bb57 9dbe 34f0 633f 6041 c83e 4557 babe
00000010: 7b82 95bd 276b 8c3f 313c 453e 84df 013f
00000020: 3c4b e33e a674 d63e 62c0 8fbe 4771 b6bd
00000030: d2e0 483f 3053 4d3e e0f4 0fbe 1935 0e3f
00000040: 7b60 f1bd 5062 89be e283 8a3f f3db a23e
00000050: ff76 0fbf a11b 41be 0193 20bf b2c0 20bf
00000060: 8b82 5dbf 4d28 55be 5304 30be 62c2 0f3f
00000070: 4b1e 3f3f 6151 1d3f 67c6 1b3f ea07 273f
00000080: 4c2c 853e 692a 76be aed6 9e3e 13c7 673f
00000090: 4df3 07be 3ca7 203e 5e40 1d3f 5c3a 1f3f
000000a0: 4bc8 8dbe 5d8b 803e 81c2 7e3e 6d78 333f
000000b0: 1887 0b3e dbaa 6e3e ea8c 413f 6694 c93e
000000c0: b742 4d3f 2ee2 88bf 177b 41be b632 34bd
000000d0: 741f 86be fd38 f43e 1797 58be 60ed 733e
000000e0: 79e8 cebe 8283 ba3e 37d6 f63e 9890 263e
000000f0: dbb9 533f 5fba 13bd 7363 7fbd 256c b6be
00000100: 1285 083e c5af 23bf 8086 0bbd 0eba a8be
00000110: 851d cb3e f4a3 a2be 8e23 97be 1563 c53e
00000120: 026a 263f 391e d13e c1aa 9c3c 1642 10bc
00000130: 23c1 883e dd11 92be 56ba 23bf 128c cc3e
00000140: 54db 19bf 9fc5 3b3f c3b6 23bf e922 22bf
00000150: 7a6d 40bc af7c b33e 4133 1ebe 5a6b 303f
00000160: bcf6 cabe b0bc c13e d152 dabe 7e33 f9be
00000170: 7ad4 183f 5c9c 043f 6245 b6bd f26c 5d3d
00000180: 5ad4 e53e 484f 073c 811a d53e c0fe e93e
00000190: 4d7f e4bd 1cac 83bd ec1c 153d 71f0 0dbf
000001a0: f60e 103f fb54 e13e c4dd 47bd 12aa f73e
000001b0: 29cf adbc ffe3 923f 8bf5 123f aa93 c73e
000001c0: b50b 393b 5c9c 303f f43a 9e3e 8b53 063f
000001d0: 2a04 813e 3605 acbd dcfd f53e f177 8c3d
000001e0: fbb8 823e 580b 00be 327b 853c 2428 be3e
000001f0: 6f70 dfbd f1d0 47be 8549 5cbe d994 70be
00000200: 5e49 3dbe 5dc3 44be 9963 f73e 6d71 453f
00000210: 28a4 d3ba af4e 643f 5a12 853d f7ef 3cbe
00000220: bb89 503f 0cd4 b33e 2a9e 1ebe 2215 1cbe
00000230: 7f11 333f 130c 6d3d 5316 073f b1bf 2e3f
00000240: d014 893f c809 da3e 8008 043e 7532 bdbe
00000250: 2e4a 94be 1135 34bc 8bb4 b2be f37d 2e3d
00000260: 117e 5f3f e3f3 b23d 977b 4e3d 5f54 85bd
00000270: a7ff 153f 9c3f acbe 8ce3 52bd f607 e5bd
00000280: 9806 ebbd a478 66be 3aff 48be 4431 fe3c
00000290: 8ba3 aebe df88 0a3f d33b 6bbe 5fff 0f3f
000002a0: b370 7bbe ed60 6f3e d68a 833e 5d6f 743e
000002b0: e420 00be 8d4f d8be 2b4f 423f 4e8b 77be
000002c0: 37cb 22bf 1ef5 90be 322f 253d 47e8 c2bd
000002d0: f4af 8bbe 8d29 12be 92a4 edbd e25f 213e
000002e0: 734d 2e3f 81a3 143f 56da 56be 2141 923e
000002f0: 62af b6be 3b2d a33e c4dd c03e 633a 58bd
00000300: 5f76 eabd 7ef1 9abd 4bc5 533f fbce 86be
00000310: 0495 713e f2f5 c03e 1e3e 363f 6aaa 523e
00000320: 2f52 023f ae5d 90be 749d 053f 895a 0c3f
00000330: bf55 e93e 8f7e a83d 143d 593f 5511 36be
00000340: 84b8 36be 2f5e 41be bcd3 94be 9e19 0e3f
00000350: d046 a2bd 7d73 67bd 8962 98bc c48a 8cbe
00000360: 3c31 f83d 93d3 503f de93 0bbe 166b e1be
00000370: 4eff 3b3f 4da4 1cbe de9f 6dbe ff11 da3e
00000380: 6108 c1be 3ae1 1abc c659 f6bd 6e58 5f3d
00000390: b0dd 45be 2cfd 6fbf bc2c c9be 3fd6 cabd
000003a0: 000e 5d3f f4bb d83e 530c 6e3e fe89 853e
000003b0: 6bbf 763f aeac 62be c0ce ba3e 0b43 613f
000003c0: 0336 2b3f e233 513e e3dd 1d3f b206 a93e
000003d0: d931 e13b a5ac a4be 14e3 e33e 8ca7 0b3f
000003e0: 8470 483f d579 333f 32a4 453e 4669 fd3e
000003f0: 243b 003f 4aef c23e a671 4abe 5ec8 2ebe

l1.bias f4 [8]
0.67917156 0.639507 0.72489375 0.9476975 0.81068707 -0.09413465 0.89969975 0.7614987
00000000: 30de 2d3f bbb6 233f a392 393f 4e9c 723f
00000010: 3089 4f3f abc9 c0bd b952 663f 94f1 423f

l2.weight f4 [8, 8]
-0.457498 -0.45452788 1.3739368 1.3458037 0.1285155 0.11612713 0.6123284 1.7053214
-0.71971816 1.4120615 0.79852927 -0.1553328 1.3209023 -0.022399783 0.025755757 -0.7140694
-0.51626337 -0.6247452 -0.38786414 1.3742874 0.06638862 -0.06231779 1.2978239 0.4729109
-0.15904467 0.04830739 0.15264557 -0.066020116 -0.29382893 -0.11649768 -0.2649036 -0.11711911
-0.34451082 -0.30301088 -0.34698573 -0.19191247 -0.0013599992 -0.07376078 -0.15379596 -0.0072486997
0.009547189 1.5126419 0.39974877 -0.4921067 1.4295156 0.112075806 -0.1712998 0.22640431
1.5753349 0.8019873 -1.2849122 0.729823 0.35631484 -0.22168943 0.9566919 -1.2045774
0.6310343 -1.0578107 1.1612227 -0.55845654 1.2036023 -0.21151955 1.283031 0.9143418
00000000: 2e3d eabe e1b7 e8be 29dd af3f 4c43 ac3f
00000010: 9199 033e 10d4 ed3d 8ec1 1c3f f947 da3f
00000020: 733f 38bf 6ebe b43f 6a6c 4c3f 900f 1fbe
00000030: 5413 a93f c07f b7bc bdfd d23c 41cd 36bf
00000040: d629 04bf 4def 1fbf 2196 c6be a6e8 af3f
00000050: c2f6 873d f040 7fbd 181f a63f 6121 f23e
00000060: 9bdc 22be f8dd 453d 1f4f 1c3e 8e35 87bd
00000070: bf70 96be 5696 eebd 72a1 87be 25dc efbd
00000080: b963 b0be 3e24 9bbe 1da8 b1be b484 44be
00000090: 0042 b2ba e40f 97bd b07c 1dbe 8086 edbb
000000a0: d06b 1c3c 409e c13f dfab cc3e 69f5 fbbe
000000b0: 5efa b63f 0088 e53d 3769 2fbe 88d6 673e
000000c0: 93a4 c93f 0a4f 4d3f 0178 a4bf aed5 3a3f
000000d0: e66e b63e 8e02 63be c3e9 743f 982f 9abf
000000e0: 778b 213f 5766 87bf f2a2 943f 02f7 0ebf
000000f0: a40f 9a3f 9598 58be 5c3a a43f 4e12 6a3f

l2.bias f4 [8]
0.39271635 0.7024857 0.45213413 -0.02727681 -0.11764665 0.04807465 0.6022222 0.041001633
00000000: 1e12 c93e 1ad6 333f 207e e73e 9e73 dfbc
00000010: baf0 f0bd ede9 443d 3c2b 1a3f 54f1 273d

l3.weight f4 [9, 8]
0.707045 -0.98627764 0.8305739 -0.0017163606 0.22633407 -0.70833284 -0.63561875 -1.3018245
-0.017157268 -0.1720899 0.8840498 -0.16463567 0.042105973 -0.67584425 0.7149648 -1.8313473
0.6552442 0.36012346 -1.4478315 0.30465835 -0.29749972 0.40104246 -1.7959111 0.09769535
-1.178387 -1.1397653 -1.3682557 -0.085991874 0.08563092 -0.3832988 1.0238245 0.66616225
0.15322383 -1.197615 0.1297579 -0.038684603 0.22358575 -1.4752805 0.5043586 0.49139795
0.37203273 -0.22190619 0.4892038 0.2512372 0.052430212 -0.110193394 -1.5183172 0.7071362
-1.0983715 -0.07058658 -0.85621214 0.1378894 -0.13907908 0.6525179 0.6340375 -1.3316517
-0.5899095 -0.22405174 -0.002070874 0.20302923 0.17865667 0.44970706 -0.0731076 0.67677796
-0.47881204 0.9268163 -0.8702177 -0.056185912 -0.12428203 0.73139584 -0.80620927 -0.28604
00000000: e700 353f b17c 7cbf 7ea0 543f 81f7 e0ba
00000010: 1ec4 673e 4d55 35bf e9b7 22bf 2fa2 a6bf
00000020: 668d 8cbc 5638 30be 1651 623f 4196 28be
00000030: 5077 2c3d 2104 2dbf ef07 373f 9769 eabf
00000040: 15be 273f 1a62 b83e 8b52 b9bf 2efc 9b3e
00000050: e251 98be 7055 cd3e 6ae0 e5bf 8014 c83d
00000060: 63d5 96bf d4e3 91bf 0123 afbf 821c b0bd
00000070: 445f af3d be3f c4be ae0c 833f 9c89 2a3f
00000080: b5e6 1c3e 734b 99bf 41df 043e bf73 1ebd
00000090: aaf3 643e fed5 bcbf a51d 013f 8398 fb3e
000000a0: 137b be3e 603b 63be ec78 fa3e 2aa2 803e
000000b0: 10c1 563d 13ad e1bd 3858 c2bf e106 353f
000000c0: 7097 8cbf b28f 90bd b830 5bbf e132 0d3e
000000d0: bf6a 0ebe 6a0b 273f 4850 223f 9073 aabf
000000e0: 4f04 17bf d26d 65be 80b7 07bb e5e6 4f3e
000000f0: c6f1 363e 0140 e63e 70b9 95bd 5241 2d3f
00000100: da26 f5be d543 6d3f 96c6 5ebf 3323 66bd
00000110: 9487 febd c23c 3b3f bb63 4ebf d673 92be

l3.bias f4 [9]
0.4599914 -0.33377653 -0.5732523 0.024961308 0.21869521 -0.17316982 0.4257066 -0.39589512
0.43966016
00000000: fe83 eb3e c2e4 aabe aac0 12bf a87b cc3c
00000010: a3f1 5f3e 6e53 31be 37f6 d93e c4b2 cabe
00000020: 231b e13e
